…
2022-02-03 18:02:50.534530: I tensorflow/stream_executor/platform/default/dso_loader.cc:48] Successfully opened dynamic library libcudnn.so.7
2022-02-03 18:02:52.644289: I tensorflow/stream_executor/platform/default/dso_loader.cc:48] Successfully opened dynamic library libcublas.so.10
Model: "functional_1"
_________________________________________________________________
Layer (type)                 Output Shape              Param #   
=================================================================
input_1 (InputLayer)         [(None, 128, 128, 1)]     0         
_________________________________________________________________
conv2d (Conv2D)              (None, 64, 64, 256)       6656      
_________________________________________________________________
activation (Activation)      (None, 64, 64, 256)       0         
_________________________________________________________________
dropout (Dropout)            (None, 64, 64, 256)       0         
_________________________________________________________________
conv2d_1 (Conv2D)            (None, 32, 32, 128)       819328    
_________________________________________________________________
activation_1 (Activation)    (None, 32, 32, 128)       0         
_________________________________________________________________
dropout_1 (Dropout)          (None, 32, 32, 128)       0         
_________________________________________________________________
conv2d_2 (Conv2D)            (None, 16, 16, 64)        204864    
_________________________________________________________________
activation_2 (Activation)    (None, 16, 16, 64)        0         
_________________________________________________________________
dropout_2 (Dropout)          (None, 16, 16, 64)        0         
_________________________________________________________________
flatten (Flatten)            (None, 16384)             0         
_________________________________________________________________
dense (Dense)                (None, 64)                1048640   
_________________________________________________________________
dense_1 (Dense)              (None, 1)                 65        
=================================================================
Total params: 2,079,553
Trainable params: 2,079,553
Non-trainable params: 0
_________________________________________________________________
Found 535 validated image filenames.
Found 60 validated image filenames.
Epoch 1/1000
1/9 [==>...........................] - ETA: 0s - loss: 1.0641 - acc: 0.5156 - sp: 0.6249
…
